checkpoint_2019-02-07_21-27.pth (torch_old, 152591 bytes, 12 tensors)

fc1.weight f4 [64, 37]
000000 cd fc 07 be 01 bb 2c 3e a3 ba 7f bd 7a 3f f6 3d
       -0.1328003 0.16868211 -0.06243385 0.12023826
000010 b7 43 ea bc a0 14 ad bc 22 64 43 3d 2a ca 84 3e
       -0.028596742 -0.021127999 0.047702916 0.2593549
000020 4e bc 27 3e 84 96 33 3d 43 d4 f0 3d c2 bb 0e be
       0.16380426 0.043844715 0.11759236 -0.13938811
000030 c1 39 98 3b 22 68 ae be b1 ed 19 bf 97 35 b2 3d
       0.0046455567 -0.34063822 -0.60128313 0.08701628
000040 88 92 d1 3d 38 89 ff 3d 75 61 83 be 6c 05 09 be
       0.10233027 0.12477344 -0.2566029 -0.13380975
000050 09 c1 5a bc 53 50 0b 3e 1e fe db 3d 40 bf 21 3e
       -0.013351687 0.1360486 0.107418284 0.15795612
000060 97 bc 6f 3d f9 71 1c be 58 72 36 3e 14 0e 56 bd
       0.058529463 -0.15277852 0.17817056 -0.05225952
000070 21 54 95 3d 4e d6 4b 3d 86 78 9e be 90 5a ba 3d
       0.07291437 0.049764924 -0.30951327 0.09099305
000080 4a c2 8a 3e fb 7e 13 3e cf dc 0d be f9 ec 5c bd
       0.27101356 0.14403908 -0.13853763 -0.053936932
000090 ad 26 94 bc b3 59 12 3e 53 53 36 be b5 0b 13 3e
       -0.018084848 0.1429203 -0.17805223 0.14359935
0000a0 e0 27 dd be 6e e7 69 be 84 7e b7 bd 8c 1b 99 be
       -0.43194485 -0.2284219 -0.08959678 -0.2990383
0000b0 98 5f 90 be 25 39 84 3d c7 b0 a1 bd 09 ab 23 3e
       -0.28197932 0.06456212 -0.07895046 0.15983213
0000c0 e7 95 e0 be 99 1a 8b bd b5 e9 ad be 7d 98 15 3e
       -0.43864366 -0.067921825 -0.33967367 0.14608951
0000d0 f8 42 0e 3e 3d be ef bc db a5 23 bd d9 20 bf be
       0.13892734 -0.029265517 -0.039953094 -0.37329748
0000e0 5c 3a c3 bd 0c 57 04 be a0 a9 48 be c2 a8 9b be
       -0.095326155 -0.12923831 -0.19595957 -0.3040219
0000f0 07 e5 80 3d e1 ae 3c be 87 99 90 3c f7 ae fc 3d
       0.062936835 -0.18426086 0.017651333 0.123380594
000100 78 28 9c be a5 c7 69 be 58 1f 67 3c 72 d4 a4 bd
       -0.30499625 -0.22830065 0.014106594 -0.08048333
000110 ac d2 a2 3d 8c f0 21 3e c6 f8 0c bf 56 94 24 3d
       0.07950339 0.15814418 -0.550671 0.040180527
000120 6f 2a 36 3e 57 e8 03 3d e5 e4 43 3e b3 0e d0 3c
       0.17789625 0.032204 0.19130285 0.025397634
000130 1a d9 1e 3e d4 ec b3 bd 6c cc 36 be d7 6f b5 bd
       0.15512505 -0.08785406 -0.17851418 -0.088592224
000140 ea df 3e 3d 25 f5 82 3e 18 6f fa bd 6d 3e 9f be
       0.04660026 0.25577655 -0.12228221 -0.31102315
000150 e9 18 12 bd 49 38 a6 3a dd b9 0d 3e 70 d3 06 3e
       -0.035668287 0.0012681569 0.13840432 0.13166595
000160 7a d5 4d 3e c8 46 98 bd d0 1c ed 3d 76 e4 22 3e
       0.20100966 -0.074353755 0.11577761 0.15907463
000170 cf 0b cf 3d b5 5d ff 3c c9 81 c2 be 57 fa 46 3e
       0.10109674 0.031172613 -0.37989643 0.19431435
000180 7a f4 95 3e 64 bd 23 3e d0 59 62 be f2 c2 4b bc
       0.29288083 0.15990216 -0.22104573 -0.012436615
000190 29 cc 14 3e 13 0a 13 3e 03 60 9c bc c9 cd b2 bd
       0.14531006 0.14359312 -0.01908875 -0.08730657
0001a0 57 c7 ed be 82 24 93 bc 95 53 31 3e 1c 5a 2b bd
       -0.46441147 -0.017961744 0.1731704 -0.041833982
0001b0 3e c5 62 be fa 43 e8 3c a7 f4 03 bb e0 9a b9 3c
       -0.22145554 0.028352726 -0.0020134838 0.022656858
0001c0 b3 a6 2a 3c 3c 91 41 3e 8d 1d 64 3c 38 69 0c be
       0.010415721 0.18903059 0.013923061 -0.13712013
0001d0 ee bf 58 3d 5a 45 27 bd d9 c6 cb 3d 8b 09 b3 3d
       0.052917413 -0.040837623 0.099500366 0.087420546
0001e0 9c 43 82 3e 90 67 83 3c 63 cc 61 b9 dc df 6c 3d
       0.25442207 0.016040593 -0.00021533812 0.057830676
0001f0 9b 6a 0d be aa d5 c7 bd fc 5e dd 3c 78 94 97 3d
       -0.13810198 -0.0975755 0.027022831 0.07401365
000200 1c 08 47 be dd 2f 66 be 3f 86 40 be b7 d5 8a 3e
       -0.19436687 -0.22479196 -0.18801211 0.27116176
000210 02 f4 89 bd 4b a4 53 be 56 94 01 be 98 4d 80 bf
       -0.06735994 -0.20668142 -0.12654242 -1.002368
000220 62 40 6d 3d 84 e7 b8 3a 57 8f ff 3d 00 37 09 3e
       0.05792273 0.0014107083 0.12478512 0.13399887
000230 65 9b 85 3e 49 b2 f0 3c 21 65 03 3e d6 18 af 3d
       0.2609512 0.029381888 0.12831546 0.08549659
000240 7c f0 09 bd 91 78 86 bd d6 53 ed 3c 28 3f 73 ba
       -0.03367661 -0.06565965 0.02897064 -0.00092791254
000250 ee ae 24 be f7 a9 80 bd 25 c7 ec bd 87 c4 04 be
       -0.16082355 -0.06282418 -0.11561421 -0.12965594
000260 88 59 10 bd 98 b3 82 3c 23 36 17 3d b4 22 e7 bc
       -0.035241634 0.015954778 0.036916863 -0.02821479
000270 b8 14 71 bc ad ca 37 bd 0d de e5 bd 77 58 4c bd
       -0.014714412 -0.04487102 -0.112239935 -0.049889054
000280 8d 3d da 3a 10 e0 5e bd de a3 3d bd 2c 94 32 be
       0.0016650424 -0.0544129 -0.046298854 -0.17439336
000290 f7 32 44 bd 5a 0f ca 3d 9b 66 91 bd 12 bd 8f 3e
       -0.047900166 0.09866209 -0.070996486 0.28073937
0002a0 cd 4d 16 be 62 08 f2 3d 20 30 e2 3d 91 52 d4 3d
       -0.14678116 0.11818005 0.11044335 0.10367311
0002b0 46 73 83 3e 1f 00 94 3e 54 31 85 be 49 c4 14 be
       0.25673884 0.28906342 -0.26014197 -0.14528002
0002c0 46 c6 15 bf a0 d7 ab bf 64 5c 1c 3c 73 9e 2b bd
       -0.58505666 -1.3425179 0.009543512 -0.041899156
0002d0 48 0d 79 3d 28 c1 38 3c 30 14 4e 3e ff d7 30 3d
       0.06080368 0.011276521 0.20124888 0.04317474
0002e0 f6 d2 02 3c 86 57 a1 3d 4a ad 6b be fd 71 4e bd
       0.007984867 0.07878022 -0.23015323 -0.050401676
0002f0 a3 de 8c 3b 30 01 0e 3e c1 aa 7a 3e b1 94 8e be
       0.0042990013 0.1386764 0.244792 -0.27847818
000300 10 89 0a be 56 5d 86 be c9 32 97 bf 1d 11 0a be
       -0.13528848 -0.26243085 -1.1812373 -0.1348309
000310 06 3f 3a be 11 93 72 3d 6c e9 f7 bd f6 c1 b9 bb
       -0.18188104 0.059222285 -0.121050686 -0.005668874
000320 d4 15 19 be 67 03 69 3e 01 a9 41 be c8 62 f1 bc
       -0.14949733 0.22755204 -0.18912126 -0.029466048
000330 57 ca 76 3c 5b 56 64 3d 4a 47 9c bd bb c8 d5 3d
       0.01506289 0.055746417 -0.07630785 0.10438677
000340 18 4c 3a 3d c7 85 78 3d 7b e3 43 bd 15 69 67 3d
       0.045482725 0.060674455 -0.047824364 0.0564967
000350 00 f3 71 3c 3e 6c e3 3c 2f 72 39 3e 5f 62 11 be
       0.014767408 0.027761575 0.18109964 -0.14197682
000360 f5 a1 01 3d 40 cc 46 bd 54 36 fd 3c 37 c8 fb 3b
       0.031648595 -0.04853463 0.030909695 0.0076837796
000370 26 61 a3 bd d9 52 aa 3d fc c6 c0 3e c6 fc ed be
       -0.07977514 0.08316583 0.37651813 -0.46481913
000380 a0 56 28 be ba e0 e3 bd f6 85 c9 bf 9d cb 97 bd
       -0.16439295 -0.111268476 -1.5744007 -0.07411883
000390 22 16 7d bd 0f 20 05 3d 21 e0 31 3e df a0 82 3e
       -0.061788686 0.032501277 0.17370655 0.2551336
0003a0 46 8b ac 3d cf d4 d9 3d 18 a7 e9 3d 64 a4 05 3e
       0.08425002 0.10636293 0.11408824 0.13050991
0003b0 f2 35 a9 3d ec 86 71 ba ab d0 9c 3c b0 75 e1 3c
       0.082622424 -0.00092135253 0.01914247 0.027521938
0003c0 61 96 03 bd b4 8b 0a be 4b f4 79 3c 9a 52 52 3c
       -0.032125834 -0.13529855 0.015255998 0.012837077
0003d0 e0 46 57 3d ab 5f 6e 3c 36 b0 81 3d 4b 4e a3 bd
       0.052557826 0.014549176 0.06332438 -0.079739176
0003e0 47 13 60 bb 66 b8 0b bd e4 82 fd bb 5c 93 c6 3d
       -0.0034191178 -0.034111403 -0.0077365506 0.09696075
0003f0 68 ce 94 3d d0 fa 51 bc 70 da 21 3d 4a 49 e7 bc
       0.07265931 -0.012816146 0.03951496 -0.02823319

fc1.bias f4 [64]
000000 05 ad 13 3e de dc d1 bd 4d 1f c5 bd f9 7e de bc
       0.1442147 -0.10247205 -0.09625111 -0.027160155
000010 bb c3 29 3e 39 c3 65 bc b1 9e cf bc 51 b0 6f 3d
       0.16578571 -0.0140235955 -0.025344225 0.058517758
000020 39 ae 08 bc e7 47 4f be e2 0e e8 3d 0e 4e 0a 3e
       -0.008342319 -0.20242272 0.11330964 0.13506338
000030 1c 3f dd 3d 0c 9a dc 3d 4f 08 66 bd a3 5f 14 be
       0.10803053 0.107715696 -0.056160267 -0.14489608
000040 8f 5f be 3c 7a 80 4f bd 15 51 1a bd 67 3f b4 bd
       0.023238925 -0.050659634 -0.037674982 -0.088011555
000050 55 db cd bd 5f 03 71 3d e2 17 41 3c 64 90 9b bd
       -0.100516 0.058841106 0.011785479 -0.075959
000060 75 1b 07 be 0e f5 b6 3d 82 50 a9 bb ac f0 e1 bd
       -0.13194068 0.08933459 -0.005167068 -0.11032233
000070 b9 7f 18 3e 24 fa 0e 3e 29 b0 c4 bd 5b e7 27 be
       0.14892472 0.13962609 -0.096039124 -0.16396849
000080 af da 0a 3e 29 34 c5 3a c6 a8 09 be be 9e 71 3d
       0.13559984 0.0015045452 -0.13443288 0.05898928
000090 b3 ef 04 bd 04 b5 ec 3c 51 ba e9 3c 56 e5 ba bd
       -0.032455157 0.028894909 0.028531225 -0.091257736
0000a0 dc 2a 01 be 93 f3 bd bc 3b 60 d9 bd 82 06 1b 3e
       -0.12614006 -0.023187434 -0.10614058 0.15139201
0000b0 61 c9 c8 3c 98 0d 09 be 1d 3c 00 3d 7e 5a 55 be
       0.024510087 -0.13384092 0.03130733 -0.20835301
0000c0 cf 53 aa bd d4 05 84 3d 77 63 17 be fa bd eb 3d
       -0.083167665 0.06446424 -0.14784037 0.115108445
0000d0 39 6c 62 bd 47 48 66 bd ba dd ff bd 65 c3 3e bd
       -0.05527899 -0.056221273 -0.12493463 -0.04657306
0000e0 93 da 4d 3d ef 96 93 b9 f1 af 31 be f3 ab 0f be
       0.050257277 -0.0002815048 -0.17352273 -0.14030437
0000f0 d2 5e 48 3d 14 1c b9 3c ee b4 46 3d 72 9a f3 3c
       0.048918553 0.022596397 0.04851239 0.029736731

fc2.weight f4 [128, 64]
000000 2a 93 da 3d d7 e1 ac 3d 07 ea 81 3e 31 d2 b4 3d
       0.106726006 0.08441513 0.2537386 0.08829153
000010 6d e7 8c 3b 93 de 09 bc 48 be d4 3d 1b 63 0d 3e
       0.004300049 -0.008414882 0.10387856 0.13807337
000020 42 49 0f 3e a0 ae af 3d ce ae fe bd 02 d7 89 be
       0.1399279 0.08578229 -0.12435685 -0.2692185
000030 08 43 8f 3b 51 0b c2 3c 07 a7 88 bd 16 39 b1 3d
       0.0043720044 0.023687037 -0.06672483 0.086534664
000040 14 ad c3 3c 0d cd 95 3d 45 c4 01 3e 06 a2 ae 3c
       0.023886241 0.07314501 0.12672527 0.021317493
000050 11 7a ec bd 9a 77 40 be f4 d0 04 3d b2 fa 47 be
       -0.1154672 -0.18795624 0.032425836 -0.19529226
000060 17 09 25 3d b6 8f e2 bd 4f 5f 7f 3e 78 1b 91 3e
       0.040291872 -0.11062567 0.24938701 0.2834127
000070 de ea 19 bd f4 9c ec bd f8 82 fd 3d b2 a3 15 be
       -0.037577502 -0.11553374 0.12378496 -0.14613226
000080 6b fb 2e 3e df ed 38 3e c9 e5 33 be 43 f6 f2 3c
       0.17088096 0.1805949 -0.17568125 0.029658442
000090 b5 40 cd bd ba 25 f3 3d 3d 7b 78 3c 9c 28 b5 bd
       -0.100221075 0.1187243 0.015166101 -0.08845636
0000a0 6c 57 8f be 60 8a 43 3e 73 93 38 3e 66 3f a9 be
       -0.27996385 0.19095755 0.18024997 -0.33056182
0000b0 4c 65 62 3d 26 2e 96 be 27 55 e3 bd 73 4f 12 3e
       0.055272385 -0.29332083 -0.11100226 0.1428812
0000c0 7b 56 ae bd 35 3c 91 3d 48 c9 71 3b 71 53 7e be
       -0.085125886 0.07091562 0.0036893655 -0.24836518
0000d0 a6 fa db bd 83 e8 e6 bd 92 d5 f2 bc 55 fa 33 bd
       -0.10741167 -0.11274817 -0.029642854 -0.043939907
0000e0 b2 32 a6 3c 2f cb 7c bd 06 cd 42 be d7 c3 4e be
       0.020287845 -0.06171721 -0.19023523 -0.20191894
0000f0 1b 5e 3c be 24 bc 89 3c 1f cb cc bd 04 24 59 3d
       -0.18395273 0.016813345 -0.0999968 0.053012863
000100 cf 0b be 3d c5 0e 6c 3e cd d8 cc be ca 58 17 3e
       0.09279596 0.23052509 -0.40009156 0.14779964
000110 06 1b 3b 3d 0b 35 57 3d 23 cc 33 3d d5 0d 2d be
       0.04568007 0.05254082 0.04389585 -0.16899808
000120 7c 11 7a 3c cb 3e 2a bd 19 39 bf 3d cc 32 f3 3b
       0.015262958 -0.04156379 0.093370624 0.007421827
000130 a8 8d 63 be 5f dc b2 3d 6c 0b 11 be f7 00 28 bd
       -0.22222006 0.08733439 -0.14164513 -0.041016545
000140 f0 69 9e bd 24 90 fc 3d 14 3a 28 be 28 f4 44 be
       -0.0773505 0.1233218 -0.16428405 -0.19233763
000150 09 78 3e be c3 c7 96 be ff 0e 2e be 59 ff c7 bd
       -0.18600477 -0.2944928 -0.16997908 -0.097655006
000160 04 54 3a be 2a 39 3a be 12 9d 73 bc 98 6e 87 3d
       -0.18196112 -0.18185869 -0.014868991 0.06612891
000170 39 a5 b5 3d 4b 22 0c be ee f2 0c 3e 1a 1d bd bd
       0.08869404 -0.13684957 0.13764545 -0.09234066
000180 e1 0b 31 be 85 2d 01 be 57 c6 41 bc a9 01 6c be
       -0.17289688 -0.1261502 -0.011827073 -0.23047508
000190 49 38 aa bd 15 0c 13 3e 8c 70 82 3e e8 04 b2 be
       -0.08311517 0.14360078 0.2547649 -0.34769368
0001a0 15 4c 93 3d fd e3 a2 bc 80 ce cf bd c1 6e 8e be
       0.07192246 -0.019884104 -0.101468086 -0.27818874
0001b0 b2 ec 7b be 26 e4 f6 bd e3 f3 80 bc f5 60 9f bd
       -0.24602011 -0.120552346 -0.015741294 -0.07782165
0001c0 8a 01 ae be 13 a0 67 bd 4d 8f a1 3d e3 97 01 bd
       -0.3398555 -0.056549143 0.078886606 -0.03163899
0001d0 f5 2c 7f be f3 89 3f bd d7 43 a7 be 98 7f c2 3d
       -0.24919493 -0.046762418 -0.32668945 0.09496993
0001e0 16 7b 42 be 43 9a ce 3b 33 31 05 3e ae d3 90 3d
       -0.18992266 0.0063050105 0.1300705 0.07071625
0001f0 a4 85 8d bd 6a 8a aa bd 61 4d ce be 1e 93 59 3d
       -0.069102556 -0.08327182 -0.4029341 0.053118818
000200 49 13 57 be 23 54 2f be 29 78 4c be 18 85 fb bc
       -0.2100345 -0.1712194 -0.19967712 -0.030703112
000210 fd b8 84 be 58 6e 68 3d ea 5e ae be 5b 2b 30 3c
       -0.25922385 0.056745857 -0.3405679 0.010752524
000220 ec 9d d1 3d eb 6a c6 bc b7 7c 0d 3e da 91 75 bd
       0.10235199 -0.024220904 0.13817106 -0.059953548
000230 a6 41 99 3d 0a 01 0e 3e 50 a5 a1 bd 9d 38 af 3d
       0.074832246 0.13867584 -0.07892859 0.0855572
000240 2e c4 06 be 4b dd 21 3b c3 8c 2f 3e 2c b3 97 bc
       -0.13160774 0.0024698551 0.1714354 -0.018518053
000250 3c fa 6f be 74 19 29 3e a3 37 05 be 69 e8 af bd
       -0.234353 0.16513616 -0.13009505 -0.085892506
000260 c2 50 69 be 26 6c 3a bc bc a2 66 3d ec 1b 94 bc
       -0.22784713 -0.011378324 0.05630754 -0.01807972
000270 62 4a f7 bd ea 6b 74 3c a1 9a ae bd 7f 9a df 3c
       -0.12074734 0.014918307 -0.08525587 0.02729535
000280 96 96 90 be b0 6e 0a be b1 4c 30 bd a7 39 47 3e
       -0.28239888 -0.13518786 -0.04304189 0.19455586
000290 7e 3d b9 3c 03 e6 7e 3c 9d 94 b2 3d 59 20 70 3d
       0.02261233 0.015557769 0.08719752 0.0586246
0002a0 a8 68 3b 3e db 9b 4b bd ff eb c9 bd e0 de 4b be
       0.18301642 -0.049709182 -0.09859466 -0.19909239
0002b0 e5 da c0 bd 27 de 83 bd 68 bf cd 3d 55 f8 a0 be
       -0.09416751 -0.064388566 0.100462735 -0.31439462
0002c0 cf 0b b1 bd 36 31 77 be f5 6a 74 bd f7 3d 95 bd
       -0.086448304 -0.24139866 -0.059672315 -0.072872095
0002d0 f2 09 25 be 47 80 2a bb 1e 3b b4 bd ff f6 58 bd
       -0.16117075 -0.00260164 -0.08800338 -0.05296993
0002e0 86 fa 92 bd 11 77 81 be d9 a0 d4 3d 5e 36 26 3e
       -0.0717669 -0.25286153 0.10382242 0.16231677
0002f0 3b b1 90 be db f4 6d 3e 55 81 b1 3d e8 55 06 3e
       -0.28260216 0.23237936 0.08667246 0.13118708
000300 27 a5 97 3d a1 2a 07 be 35 e3 81 bc e5 30 b2 be
       0.07404547 -0.13199855 -0.015855411 -0.3480293
000310 21 56 f6 bd ad ac 8c bc 76 02 2e be cf 27 cd 3d
       -0.120281465 -0.017172182 -0.16993126 0.100173585
000320 19 cf ef bd 6e 9a b2 3d 2f 64 01 bc 5e 0c 28 3e
       -0.117094226 0.087208614 -0.007897421 0.16410968
000330 a8 09 1d bd b7 4f 46 3d 55 34 52 3c 43 53 8c bd
       -0.038339287 0.048415866 0.01282986 -0.068518184
000340 14 40 56 3c ee d4 61 3d c1 cf 3e 3d f7 5f eb 3d
       0.013076801 0.055134706 0.04658485 0.11492913
000350 1a 7d 5b 3b bc fa d4 3d 1e 3d ba 3d a8 fe 84 3c
       0.0033491314 0.10399386 0.090936884 0.01623471
000360 b8 88 d1 3d 13 87 cf 3b 38 88 b7 3c 65 d7 2d 3e
       0.10231155 0.006333241 0.022403821 0.16976698
000370 4a ba 9c 3d a5 46 08 bf 28 08 e3 bd a3 02 be 3d
       0.07652719 -0.53232795 -0.1108554 0.09277847
000380 5e d8 a7 bc fc 2e 78 bd a3 59 b6 bc 54 3f 1a bc
       -0.020488914 -0.060591683 -0.022259539 -0.009414513
000390 05 5d 14 3b 8c e5 7b 3d 2a 51 7d 3d 4b 58 3b bd
       0.0022638452 0.06149821 0.061844982 -0.0457385
0003a0 45 c3 89 bd d2 bd 06 3e 84 70 18 bd 23 f1 e4 bd
       -0.06726698 0.13158348 -0.03721668 -0.11178806
0003b0 f4 9b 37 be ad 6a a5 3c 9d ea 9e 3d 72 ce a4 3d
       -0.17930585 0.020192469 0.07759593 0.08047189
0003c0 48 3d cc 3d d9 c8 18 3e bf 06 f4 bc 91 2f a7 3e
       0.09972626 0.14920367 -0.029788373 0.32653478
0003d0 14 e7 cf 3d f5 a0 2c bd 5e 3d 0e 3e 78 f2 c2 3d
       0.101514965 -0.042145688 0.13890597 0.095189035
0003e0 dd a3 cd 3c 11 18 19 be d1 8a f6 bc 21 e8 5f 3e
       0.02510255 -0.14950587 -0.03009549 0.21865894
0003f0 07 b3 83 be ca 17 99 3e 70 a2 07 be 15 0e db bc
       -0.25722525 0.29900962 -0.13245559 -0.026740113

fc2.bias f4 [128]
000000 1c 52 3a 3d 42 86 8f 3b 82 34 d5 3c 52 8f ba bd
       0.04548846 0.0043800185 0.026026014 -0.091093674
000010 7f 13 7d 3d 74 07 20 3d 19 62 6f 3d 4a 34 23 bd
       0.06178617 0.039069608 0.058443163 -0.03984479
000020 32 51 45 3c f2 3a 7c 3d 1d ea 50 3c 99 01 e8 bc
       0.012043284 0.061579652 0.012751129 -0.028321074
000030 ce 46 ad bd 1e ae fb bd 12 8c 1e bd 8b fd 01 be
       -0.084607705 -0.122890696 -0.0387078 -0.12694375
000040 59 f9 78 3d 90 19 60 3d 0d b0 d3 3d b1 4e d0 bd
       0.06078467 0.05471188 0.103363134 -0.10171259
000050 a4 d1 3c bc 6e 57 67 3d 7a 12 ff bd d5 cd e3 bd
       -0.011524592 0.056479864 -0.12454696 -0.11123244
000060 8e e0 8c bd e0 c5 89 3c dd 8a 27 3c 02 1d 8e 3d
       -0.06878768 0.016817987 0.010225979 0.069391266
000070 69 46 0e 3c 6c 00 36 3e 1c 55 c0 3c 7c 29 10 3d
       0.008683779 0.17773598 0.023478083 0.035195813
000080 90 f5 dd bd aa e3 f2 3b cf 72 04 3d 7d 1f bb 3d
       -0.10837853 0.0074123936 0.032336053 0.09136865
000090 99 a7 7b bd 65 7a 25 3a 65 d5 f5 bd da bb 20 be
       -0.06143913 0.00063124887 -0.120035924 -0.1569666
0000a0 ab 8c ee 3d ad 30 ed bb 90 bc 1b 3d ed e8 b5 3d
       0.11647924 -0.0072384686 0.038021624 0.08882318
0000b0 18 80 61 bb 24 9f 1e 3d bc 61 57 bd c4 7b 14 be
       -0.0034408625 0.038725987 -0.05258344 -0.14500338
0000c0 b8 53 2e bd 9c 81 90 bd 32 2e da 3d 57 3a 2b 3c
       -0.04256031 -0.07055971 0.10653342 0.010450921
0000d0 88 07 06 3e 4e 8e 8d bd 5c 76 b5 bc 58 fa 33 3e
       0.1308881 -0.06911908 -0.022151165 0.17575967
0000e0 fd e0 8a bd c7 13 82 bd 33 05 bc 3d 01 09 80 bd
       -0.06781194 -0.063514285 0.09180679 -0.06251717
0000f0 bf a8 4c 3d 24 c4 a5 3d 60 6f a8 bd c7 9f e3 3d
       0.049965616 0.080940515 -0.08224368 0.111144595
000100 f2 0e 34 bc 6c 67 ae 3d f7 f7 4b bd 66 1b 10 be
       -0.010989891 0.0851582 -0.049797025 -0.14072952
000110 07 e3 4f bd c1 05 fb 3b 3e 00 12 3b 37 cc b3 3c
       -0.05075362 0.007660598 0.0022277976 0.021947963
000120 dc 46 03 be 6f 2f b6 3c c9 d9 c5 3c 95 fe dc bd
       -0.1282 0.022239415 0.0241517 -0.10790745
000130 7f 1b 2e 3e 20 42 b4 bd 64 9e 99 3d 42 5f 54 bd
       0.17002676 -0.08801675 0.07500914 -0.051848657
000140 6a e2 10 be 3f e1 a2 3d 1d 84 12 bc 10 28 66 3d
       -0.1414887 0.079531185 -0.008942631 0.05619055
000150 1e 98 a4 bb 8b a3 92 3d f2 01 97 3d 91 d1 62 3d
       -0.0050230166 0.071600996 0.07373418 0.05537564
000160 3d 62 6d bd fa 6f d1 bc 34 a7 16 3b 3c 8c 74 3d
       -0.057955015 -0.02556609 0.0022987844 0.05970405
000170 11 2b a6 3d d3 c1 07 3d 1c e4 8b bd 1d cb 15 be
       0.08113683 0.03314383 -0.06830618 -0.14628263
000180 8d 21 2a be 63 00 29 3d c3 d8 97 3d 28 48 97 bd
       -0.16614361 0.041260134 0.07414391 -0.073868096
000190 35 21 57 be f5 30 c0 3d 17 22 6f bc 57 1b 38 bd
       -0.21008761 0.09384338 -0.01459553 -0.04494795
0001a0 17 7f c2 bc bb 30 80 3d d5 d9 0f 3d e1 6f c8 b9
       -0.023742242 0.062592946 0.03511985 -0.0003823033
0001b0 0f 14 cc bc 41 a6 71 bd 73 ab e6 bd 23 b5 2f bd
       -0.024911908 -0.058996443 -0.1126317 -0.042897355
0001c0 a6 5e 0a be 40 75 95 3d 5d a6 1b 3d a8 9a 83 3d
       -0.13512668 0.07297754 0.038000453 0.06425983
0001d0 71 75 23 be 68 1e e7 bb 0a f3 a6 3d a5 bb 46 3d
       -0.15962769 -0.0070531853 0.08151825 0.048518796
0001e0 42 db 4f bd da b2 a3 bd d8 9c a8 3d 04 7b 5b bd
       -0.05074621 -0.079930976 0.082330406 -0.053584114
0001f0 a7 b0 cb bd 57 30 e6 bc 42 2f 7d 3c 88 a1 5f bd
       -0.09945803 -0.028099222 0.015453162 -0.054597408

fc3.weight f4 [128, 128]
000000 78 59 9b be 3f a4 7c bc 43 48 a6 bd 5d fa e9 bd
       -0.30341697 -0.015420019 -0.081192516 -0.11424706
000010 b2 10 86 be f5 a9 ba 3d d8 0b 33 3d c9 18 53 be
       -0.26184613 0.09114448 0.043712467 -0.20614924
000020 28 10 18 be 81 54 27 be 21 12 47 ba de 47 3c bb
       -0.14849913 -0.1634083 -0.0007593949 -0.002872936
000030 85 ef c0 3a d7 79 9a 3c ad c6 ab bd e9 8b 3e be
       0.001471982 0.018856926 -0.08387504 -0.18608059
000040 57 7a 56 bd 30 c2 7c bd d9 6a 53 3d 0f 26 90 bc
       -0.052362766 -0.06170863 0.05161557 -0.017596273
000050 8d 75 3a be d8 01 c3 bc 09 92 39 3d bc 64 1a bd
       -0.18208905 -0.02380459 0.045305286 -0.037693724
000060 6a 82 78 be 7f f8 5b bb aa 2d 14 bd ce 2b a7 bd
       -0.24268499 -0.0033564863 -0.03617636 -0.08162652
000070 75 bc 85 bd 56 eb b2 3d c2 61 62 be 44 ce c0 bd
       -0.06530086 0.08736293 -0.22107604 -0.09414342
000080 16 ee 93 be 71 ae 61 bd 08 8c 5f 3d 10 28 db bc
       -0.28892583 -0.055098 0.054576904 -0.026752502
000090 82 8f 8b bd 10 29 39 3d f6 0a 64 3d c0 a1 9a 3e
       -0.06814481 0.045205176 0.055674516 0.3020153
0000a0 17 78 ed bd b3 d2 ed 3c 35 50 d4 be 71 f9 85 3c
       -0.11595171 0.029031133 -0.41467443 0.016354294
0000b0 18 89 5d bb e2 e9 c1 3d df 10 02 be 5f 4a 45 3c
       -0.0033803638 0.09468438 -0.12701748 0.012041657
0000c0 53 72 a1 bc 04 af 09 bc 74 72 3f bd 7e e4 20 be
       -0.019707834 -0.008403543 -0.04674001 -0.15712163
0000d0 db 16 2b 3c af fc 7c be 28 5a 2b 3e 7d ca 83 be
       0.010442461 -0.24705766 0.1673361 -0.25740424
0000e0 ac 81 0e bc 2d c0 b7 bd 44 6a ab bd 0b 4d 1e be
       -0.008697908 -0.089722015 -0.08369878 -0.15459077
0000f0 56 2d 1c be 75 23 10 bd c3 2b ae bc 6c c6 c3 bd
       -0.1525167 -0.035190064 -0.021261102 -0.0955933
000100 82 ab 5a 3c 1f f6 91 3d 12 95 29 be f6 f5 28 3e
       0.013346555 0.07127022 -0.16560772 0.16500077
000110 4c 2a 75 be 57 d3 a7 be 8b 13 8d 3d fc 3f 38 3e
       -0.23941916 -0.32778427 0.06888493 0.17993158
000120 86 39 85 be 47 05 be bc 79 1e 10 3d de 96 aa bd
       -0.2602045 -0.023195876 0.03518531 -0.08329557
000130 66 1d 68 bd 2a 2e de bd 26 b5 f6 bd 49 97 c7 bb
       -0.05666866 -0.10848649 -0.1204627 -0.0060910326
000140 7a 6f a3 3c ad db b6 3d 7d a5 1a be cb 25 04 be
       0.019950617 0.089286186 -0.15102191 -0.12905042
000150 32 a9 ee 3c 2c 82 c1 3c af 34 c0 3d b9 43 7a be
       0.029133413 0.023621641 0.093850486 -0.24439897
000160 3f 82 6c 3c de 76 21 be 28 98 97 bb ac 2e d7 3d
       0.01443535 -0.15768 -0.0046262927 0.10506949
000170 d2 21 b4 3d 14 f0 2f be 11 72 7f be 96 91 50 3d
       0.08795513 -0.17181426 -0.24945857 0.05092009
000180 6a 1c 0f be 68 33 0b be b8 01 34 be 43 ef 44 be
       -0.13975683 -0.13593829 -0.1757878 -0.19231896
000190 de e7 ce bd 50 d1 37 3e 74 61 49 3e 28 60 0d 3c
       -0.10102819 0.1795094 0.19666082 0.0086288825
0001a0 d1 54 9a bd 68 71 77 be c0 40 32 be 9a 93 d5 bd
       -0.07535709 -0.24164355 -0.17407513 -0.104285434
0001b0 c9 5d c0 be 69 02 62 b9 e1 ec de bc 94 66 e8 3c
       -0.37571552 -0.00021553937 -0.027212562 0.028369226
0001c0 f2 2c 99 3d f0 03 88 bd fb d1 84 3d 80 44 8d be
       0.07479276 -0.06641376 0.06485363 -0.27591324
0001d0 88 78 3e 3d 7d 6a bf bc 41 18 8c bd b4 07 24 bc
       0.046501666 -0.023366207 -0.068405636 -0.010011602
0001e0 c4 a6 31 bc 16 b1 1e 3e ce 92 da bd 15 38 a6 bd
       -0.010842983 0.1549724 -0.10672532 -0.081161655
0001f0 d2 f8 49 3d 7c f5 02 3e 48 30 4e be 6b 56 cb 3d
       0.04930956 0.12788957 -0.20135605 0.09928592
000200 96 3d e9 3c a5 92 5b 3d e2 8c 50 be b1 6a 6b be
       0.02847175 0.053606648 -0.20366243 -0.22989918
000210 59 52 99 be 7c 5c 2e 3d b8 36 1c 3d da 7f 47 bd
       -0.2994564 0.04256867 0.03813812 -0.048705913
000220 7e 1d 79 bd 74 96 43 bc d9 e0 67 bd 4c 7d a6 3e
       -0.06081914 -0.011937726 -0.056610916 0.3251747
000230 a1 f5 a0 3c 23 6d 49 3e 94 94 8b be dd 88 fc bc
       0.019648375 0.19670539 -0.27261794 -0.03082698
000240 0c aa a1 bc 2c 07 7d 3e dc 1e 89 3d aa d9 8a bc
       -0.019734405 0.24709767 0.06695339 -0.016949493
000250 41 98 ed 3d c0 49 29 bb 06 1b a9 3b 92 5a f8 3b
       0.11601306 -0.0025831312 0.005160692 0.007579156
000260 fe a3 2c bc 29 2c 0c 3d 08 ea 67 3d da 7c 5d bd
       -0.010537146 0.034221802 0.056619674 -0.054074146
000270 5e 64 b7 3d 79 67 18 3e 52 a6 a6 be e6 d1 fb 3d
       0.089546904 0.14883222 -0.32548767 0.12295894
000280 6b 50 6b 3d e2 2c a7 bc 6c ea 91 bd 4b cd 94 bd
       0.05744974 -0.020407144 -0.071247905 -0.07265719
000290 9a 2c ad 3d 36 28 69 be 07 d6 f6 3c dd e3 0f be
       0.08455773 -0.22769246 0.030131353 -0.14051767
0002a0 f4 49 cb 3d f2 97 b8 3b 40 38 52 3d ed 28 9d 3d
       0.09926215 0.0056333477 0.051323175 0.076738216
0002b0 8f 3c fd 3d 5c 12 ab bd 71 ce d4 3c cb be 71 bd
       0.12365066 -0.08353111 0.025977345 -0.059019845
0002c0 0a 2b 88 3d a6 42 4e 3d 71 d3 a2 be b8 2b 4a 3e
       0.06648834 0.05035653 -0.31801942 0.1974324
0002d0 f5 52 0c 3e 29 e9 4e 3e 5a 29 32 3e 57 14 62 3d
       0.1370352 0.20206131 0.17398587 0.05519518
0002e0 fb b8 ef 3d 19 0b 31 bd 50 e9 d1 3d f7 e9 ec 3c
       0.11705204 -0.043223474 0.10249579 0.028920157
0002f0 7d e0 c2 bc 7f 6b b0 bd 8f 28 5d be 5a 6e 63 3e
       -0.023788685 -0.08614253 -0.21597503 0.22210065
000300 16 a4 dd bd db a5 69 3e b7 19 c2 bd 44 d9 84 3d
       -0.108223125 0.22817175 -0.09477561 0.06486753
000310 cf 07 9b be 4f 4f 32 be a9 2c 9b be 16 fe 0b 3e
       -0.30279395 -0.17413066 -0.3030751 0.13671145
000320 f7 de be bd 8b f9 b0 3d 33 82 9d 3c fe ae 63 3d
       -0.09319871 0.086413465 0.019227123 0.055586807
000330 8a 92 23 be fb 0d 1d 3e e8 47 81 be 59 e8 3b bd
       -0.15973869 0.15337364 -0.25250173 -0.04587588
000340 00 1e bd be f9 8c c5 3d a3 f3 93 bd fb e1 91 bd
       -0.3693695 0.09646029 -0.072242044 -0.071231805
000350 f4 d2 5b bd 86 f5 d5 3d bb 7f 66 3d 5e 26 e5 bc
       -0.053667977 0.104472205 0.056274157 -0.027972396
000360 86 ed 8e 3d 80 02 90 3e 5a d2 31 be 97 f4 4d be
       0.06978898 0.28126907 -0.17365399 -0.20112835
000370 5c e9 01 be e2 06 38 bd c4 d7 3d 3c d8 42 8a bd
       -0.12686676 -0.04492844 0.011587087 -0.06751031
000380 ac df 1c be 49 5b 8b bd d8 fa 1f 3e 25 39 12 be
       -0.15319699 -0.06804521 0.15623033 -0.14279611
000390 8f 0d 2e 3d 2e 92 8c be 5e 00 0b be c9 04 bc 3d
       0.0424934 -0.27455276 -0.13574359 0.091806
0003a0 ee 83 79 bd 10 7e a7 be 1a c3 6d be b0 d9 8a be
       -0.060916834 -0.32713366 -0.23218957 -0.27119207
0003b0 47 c2 cc bd 4e ab 8e bc 1d 6f 96 3d a4 43 9f 3d
       -0.09997993 -0.017415669 0.07345412 0.07776573
0003c0 e9 31 1c bd 48 fc 3f 3e 26 80 45 3d aa ea 5c bd
       -0.038133536 0.18748581 0.048217915 -0.05393473
0003d0 80 5e 4e 3d 6e 58 28 3e 3f 09 a1 3c 6d b6 7b be
       0.05038309 0.16439983 0.01965773 -0.24581309
0003e0 ce 8b dc 3d 3f de 60 3c 44 09 4f 3d d2 4e 6b 3e
       0.10768853 0.013724863 0.050545946 0.22979286
0003f0 d2 d3 f4 3d 66 07 82 3d de 4e e6 bc f2 d4 98 be
       0.11954464 0.063490674 -0.028113779 -0.29849964

fc3.bias f4 [128]
000000 6a a2 c4 3c 26 ba 3d bd 2c 88 c6 3d 86 82 83 bd
       0.024003226 -0.046320103 0.096939415 -0.0642138
000010 f7 e3 f0 3d d9 0c a7 bd 3d f5 ad 3d 41 48 00 3d
       0.11762231 -0.08156747 0.08494041 0.031318907
000020 87 ba 10 be 3c c2 15 be 21 4a e4 3d f4 df 86 3c
       -0.14133655 -0.14624876 0.111469515 0.016464211
000030 a7 c1 2f bd b3 22 e5 3b 0d a1 49 be 6f 4c 6b 3c
       -0.04290929 0.006992662 -0.19690342 0.014361485
000040 18 06 db bd 10 59 c0 bd 10 50 91 3c 9a 85 c4 bd
       -0.10694522 -0.09391987 0.017738372 -0.09595795
000050 55 e2 97 3d ba ba 0d bd 3b 0a e1 3c b7 e3 72 3d
       0.07416216 -0.034601904 0.027470699 0.059299197
000060 f1 b5 bb bc 5c 9a 64 bd a3 25 b0 3b 93 fc 0b be
       -0.022913905 -0.05581127 0.0053755804 -0.13670568
000070 17 e8 5e bd 31 90 45 bd 39 b7 f9 bd 73 6c 5f bd
       -0.054420557 -0.048233215 -0.1219315 -0.054546785
000080 79 3f 5d 3d e4 11 b8 bd 2f d6 73 3d 48 37 7b bd
       0.05401561 -0.08987787 0.059530433 -0.061332017
000090 00 2d de bc 2b c8 d6 bc 2f 0d 69 3c e7 ea 8a bd
       -0.027121067 -0.026218494 0.014224335 -0.06783085
0000a0 51 40 ed bd 0a 47 69 3d 4a 4e 9b 3d 58 86 24 bd
       -0.11584533 0.056952514 0.07583292 -0.040167183
0000b0 29 e1 1e 3d c9 3e b0 bd 94 d1 75 bd a6 71 dd bd
       0.03878895 -0.08605725 -0.060014322 -0.10812692
0000c0 a4 ae df bd 9f aa 8e 3d 35 38 d1 3c 9e de 45 bc
       -0.10921982 0.06966137 0.025539497 -0.012077002
0000d0 4e 11 99 bc 6a ad 48 bd ed c7 8e 3d 4c d0 dc bd
       -0.01868501 -0.048993506 0.069717266 -0.10781917
0000e0 6b fa cb 3d 79 e1 34 3d 23 05 c7 3d ba 10 e2 bc
       0.09959873 0.04416034 0.097177766 -0.027595866
0000f0 3e ce cf bb 2b 78 0c 3e b8 01 1f 3e 8d e1 bc 3b
       -0.0063417247 0.13717715 0.15528 0.0057641924
000100 81 64 7e 3b de f2 b7 bc 71 79 2f 3d ab 54 b6 bd
       0.003881723 -0.022454675 0.042840425 -0.08902868
000110 eb 0c 95 3c 75 0c 18 39 e1 f1 6f 3d da 29 01 be
       0.018194636 0.0001450049 0.058580283 -0.12613621
000120 d4 c0 84 bd 45 e5 75 bc 60 4a f9 bd b6 b6 b7 3c
       -0.064820915 -0.015008275 -0.12172389 0.02242599
000130 01 3e 64 3d 10 69 4d bd a9 a5 24 3c f5 4e a3 bc
       0.055723194 -0.050149024 0.010049262 -0.01993511
000140 12 f2 20 bd f9 02 0b 3d 9a a4 c6 3d c1 8b db 3d
       -0.039293356 0.03393838 0.09699364 0.10720015
000150 ab 0e bc bd 50 a8 fe bd d6 00 d3 bc 90 37 1b 3d
       -0.09182485 -0.12434447 -0.025757235 0.037894785
000160 ba 9c 0c be cb be d0 3d 20 e8 25 3c a6 d9 a0 3b
       -0.13731661 0.10192641 0.010126144 0.004908758
000170 20 a8 3d bd 21 2a a4 bd 5c 2f d7 bd 4f 98 b7 b9
       -0.046302915 -0.08015848 -0.1050708 -0.0003501796
000180 73 1f 82 bb ed 59 69 bc e9 09 f1 3b 9b a4 af bc
       -0.003971034 -0.014242631 0.0073559177 -0.021440795
000190 02 ab d0 bd 78 ba 5e bc fe 0c b0 3d fb 27 00 3e
       -0.10188867 -0.013594262 0.08596228 0.12515251
0001a0 29 a9 78 3c 14 2c 90 bd 8e a4 1a 3d 4c a3 a4 bc
       0.01517705 -0.07039657 0.037754588 -0.020097397
0001b0 d1 3d a8 bd 7f 3b b0 bc df 59 aa 3c 5d 7e 89 3d
       -0.082149155 -0.021512745 0.020794807 0.06713555
0001c0 8b 03 bf bd 93 bb d6 bd 33 d2 c7 3d f7 9e 4e bd
       -0.09326848 -0.10484996 0.09756889 -0.05044457
0001d0 44 41 0e 3e 4c ad 1e be 23 0b 1e 3d 83 57 2d bd
       0.13892084 -0.15495795 0.03858484 -0.042319786
0001e0 ef 73 41 3e a2 1c 39 3e f5 a8 fc bd 9f a0 0a be
       0.18891881 0.18077329 -0.123369135 -0.13537835
0001f0 30 2e c4 bd 4d 34 28 be ba 1c d9 3b 50 e4 8e 3d
       -0.09579122 -0.16426201 0.006625739 0.06977141

fc4.weight f4 [64, 128]
000000 c5 d5 b2 bd c0 5e e1 3c 89 10 10 bd 20 1c 92 bd
       -0.087321796 0.027511 -0.03517202 -0.07134271
000010 d7 f0 e1 3c e8 c8 5e 3d d1 0c 06 be 4d 49 27 3c
       0.027580662 0.054390818 -0.13090827 0.010210347
000020 6c 5a 83 be 9c 1b ba 3d ef f0 ba bd 82 1c b3 bd
       -0.25654924 0.09087297 -0.09127986 -0.08745672
000030 31 8a 0c 3e 3e 2c 07 bd 55 a8 99 3c b2 2b 8e bd
       0.13724591 -0.033001177 0.018757025 -0.06941928
000040 0b 90 34 3e ec 05 a4 3d 9a 18 7f 3d c8 20 1a 3e
       0.17633073 0.08008942 0.06227932 0.15051568
000050 c9 51 ab bd c8 5f f0 3d 1d eb cf 3d 5a df 3f bd
       -0.08365209 0.11737019 0.10152266 -0.046843864
000060 cd 1c ea 3d 13 af 2e 3d 11 6d 5c 3d 15 b7 75 bd
       0.114312746 0.042647433 0.05381495 -0.059989054
000070 64 d2 54 3d a2 c1 c1 bb 7a a5 b3 bd df 55 c7 bc
       0.051958457 -0.0059129754 -0.087717965 -0.024332939
000080 d3 7e 52 3d e2 73 6e bd ea 1e b9 bd 68 ea d3 3b
       0.05139048 -0.058215983 -0.090390995 0.0064671524
000090 81 30 a0 3d 2d 86 3c 3d 38 e2 b1 3d b4 71 e8 bc
       0.078217514 0.046026397 0.08685726 -0.02837453
0000a0 51 43 cc 3c 7f b7 4c 3d e7 f1 ee bd f7 d6 7f 3d
       0.024934443 0.049979683 -0.11667233 0.062460866
0000b0 02 8d 0e 3d 87 61 0b 3d 9c 3a 8d 3d f8 1e d5 bc
       0.034802444 0.034028556 0.068959445 -0.026015744
0000c0 36 69 b7 bc bc a8 98 bd b6 f5 ea 3d ea 81 48 3d
       -0.022389036 -0.074540585 0.11472647 0.04895202
0000d0 07 82 de bd 11 d3 b5 3c f6 fb 3c 3b ed a4 3f be
       -0.108646445 0.02219537 0.0028836704 -0.18715258
0000e0 26 b6 08 be 31 f9 ae 3b 70 8b 02 be 9e ac 06 3d
       -0.13350734 0.0053397645 -0.12748504 0.032879464
0000f0 c6 06 e6 bc 8f 14 d4 bd 62 15 27 bd ee c0 21 ba
       -0.028079402 -0.10355484 -0.040791877 -0.00061704114
000100 3b 69 25 3e e1 c3 be 3c a0 84 e4 3c c3 8d 78 3d
       0.16153423 0.023286762 0.027895272 0.06068207
000110 97 bf 2e 3c d6 55 5e 3c 87 58 4e 3d 3f 08 ae 3d
       0.010665796 0.01357027 0.050377395 0.084976666
000120 74 f9 c9 bd 92 ca 16 bc 4e 14 d9 bc fb a3 13 3d
       -0.098620325 -0.00920357 -0.02649894 0.036045056
000130 11 71 c9 bd 83 2a f9 bd 8c 6b cc bc 61 65 d6 3d
       -0.09836019 -0.121663116 -0.024953626 0.10468555
000140 1c f5 e1 3c f8 3d be 3d 4a 6f 81 bd fa 50 2e 3d
       0.027582698 0.09289163 -0.06320055 0.042557694
000150 24 05 e1 3c b1 df 31 3d 20 fe e6 3d e1 b6 9c bd
       0.027468272 0.04342622 0.11278939 -0.07652069
000160 4d 6c 80 3b 8f 8b bc 3c 51 69 9c bd 27 d9 c3 bd
       0.0039191605 0.023015765 -0.07637275 -0.09562903
000170 01 b8 d4 bd 83 79 0f bd c0 96 88 ba 3d 4e 96 bd
       -0.103866585 -0.035027992 -0.0010420904 -0.073391415
000180 de 4c 1b be 5f 43 ce 3d 8b 52 aa be 93 b5 cb 3d
       -0.15166041 0.10071444 -0.332661 0.09946742
000190 8f 09 50 3d 12 4f 1b 3e a4 10 f0 bd 80 7a 28 bd
       0.050790366 0.15166882 -0.11721924 -0.04113245
0001a0 31 88 a0 3d 28 82 96 bd 24 a5 09 be 57 fe 40 3d
       0.078384764 -0.07349044 -0.13441902 0.047117557
0001b0 4c 01 df 3d 91 fb 37 3d b3 69 43 be 2e 1d 55 be
       0.10888919 0.044917647 -0.1908329 -0.20811912
0001c0 2c a1 9d 3c 2b dc 8d 3c 92 1a 3e be 7e 92 9d bd
       0.019241892 0.017316898 -0.18564823 -0.07693957
0001d0 03 21 73 bd 52 c1 1d 3e 16 5d 82 3d 4d 8c 89 bd
       -0.059357654 0.15405777 0.06365411 -0.067162134
0001e0 49 ec 08 bd 85 db 30 be 63 23 c5 3d 0a 53 26 3d
       -0.033428464 -0.1727124 0.0962589 0.040606536
0001f0 9f 16 a2 bd 7f 07 46 3d 9b 49 48 bd ac 5f 4a 3d
       -0.07914471 0.048346993 -0.04889832 0.049407646
000200 4d a1 24 be 3a 23 59 3d 31 e9 f2 bc 86 64 21 3d
       -0.16077156 0.05301211 -0.02965221 0.039402507
000210 bd 05 f2 3d 6a 04 31 3d 07 85 40 3e 5a 9c ac bc
       0.11817501 0.0432171 0.18800746 -0.021070648
000220 c8 02 6b bd 97 86 5e bd a8 13 9d 3d 1c 8a 3f 3d
       -0.0573757 -0.054327574 0.07669765 0.04676257
000230 fa db 5b be 74 38 c1 bd fd 22 d9 bc b9 15 83 3e
       -0.21470633 -0.09434596 -0.026505942 0.2560251
000240 d8 c4 a7 bd 2f 28 13 bd 2d 8a 36 3e eb 5d 34 bd
       -0.08191842 -0.035926994 0.17826147 -0.04403488
000250 86 58 eb bd d6 10 1f be 70 71 2a be 4b 80 ca bc
       -0.11491494 -0.15533766 -0.16644835 -0.024719378
000260 ca 20 3d bc 8a fb 1e 3e ad 79 c3 bd b7 f5 34 be
       -0.011543462 0.15525642 -0.09544692 -0.17671858
000270 4a 67 0b bd a2 87 cb 3d 0f 01 92 bd fc 9b 39 bd
       -0.03403405 0.09937979 -0.07129108 -0.045314774
000280 c9 67 6e 3e 38 00 e9 bd af 9b ac 3d 92 69 59 3e
       0.23281778 -0.11376995 0.08428132 0.21231678
000290 aa 18 d3 3c 42 ae ac 3e 88 7d 50 be 53 12 9d bd
       0.025768597 0.33726698 -0.20360386 -0.07669511
0002a0 df ef c0 3d 5c 95 d6 bd 0a bf 85 bd 13 af 51 3e
       0.09420752 -0.10477707 -0.065305784 0.20476942
0002b0 7b cf 9b bb 51 01 73 3e 20 84 29 3d 88 04 33 3c
       -0.004754958 0.23730971 0.04138577 0.010926373
0002c0 5c bb 73 bd 72 03 bb 3c 79 c5 b8 3d a9 f5 93 bd
       -0.05950485 0.022828791 0.0902204 -0.0722459
0002d0 b9 c6 96 bd 16 fc af 3d 9c d2 34 3e a8 6d 2e bc
       -0.07362122 0.085930035 0.17658466 -0.010646261
0002e0 d5 b2 8a bd 77 11 6a 3e 81 87 98 bb ef 62 bb 3d
       -0.06772391 0.22858225 -0.004654825 0.091497295
0002f0 d5 59 b9 bd a8 cf 9c 3c 20 24 17 be 85 49 a2 bd
       -0.09050337 0.019141987 -0.14759874 -0.07924179
000300 69 7d 13 bc 85 b4 72 3d b2 6c 69 be fc 5d ee bd
       -0.009002068 0.059254188 -0.2279537 -0.1163902
000310 08 fc 82 3d bf 6e 9c 3c fb 1c 9e bd ae ea e2 bc
       0.063957274 0.019095777 -0.07720371 -0.027699795
000320 7c fd 0c be 9a 59 a0 bd 52 fd fd bd f0 dd b3 3d
       -0.13768572 -0.0782959 -0.12401833 0.087825656
000330 d7 75 5c bd 34 5c 03 3b 06 b1 89 3d 12 97 83 3d
       -0.05382332 0.002004397 0.06723218 0.06425299
000340 3d 2d 42 3e f4 b9 a0 bd 42 ca c0 3d 95 ee 91 3c
       0.1896257 -0.07847968 0.094135776 0.01781396
000350 2a 20 ce bd 58 e8 2e 3c 37 d9 87 3d f9 4f 1a 3d
       -0.100647286 0.010675512 0.06633227 0.037673924
000360 70 2f 3e 3e 3f 46 6a 3c e1 9b 9b be 6e 80 34 be
       0.18572783 0.014298975 -0.30392364 -0.17627117
000370 80 77 e1 bc 77 26 34 be 78 13 61 3c bc 5c 84 be
       -0.027522802 -0.17592798 0.013737552 -0.25852
000380 cf dc c7 3b 5a ad 5a 3e 93 6e 9b 3d 46 ce 82 3d
       0.0060993205 0.21355191 0.0758945 0.06387
000390 19 4c 10 be 91 ed ed 3b dd 2b ec 3c 5b f0 8e bc
       -0.14091529 0.007260986 0.02882951 -0.017448595
0003a0 ff 4b 75 bd db ae b0 be ec 27 a5 be bd 3e a7 be
       -0.05988693 -0.34508404 -0.3225702 -0.32665053
0003b0 fa 95 36 3d 9a e5 82 bd 33 24 be bd 96 a9 b0 bd
       0.044576623 -0.06391449 -0.09284248 -0.08626096
0003c0 2d 3a 52 3d 9e ab a7 bd 5c 9f 3f 3d bc 48 b4 3d
       0.051325012 -0.0818703 0.046782836 0.088029355
0003d0 f6 3f ea 3c 92 d0 6b 3d 84 1b 84 3d 09 56 73 3d
       0.028594952 0.057571955 0.06450561 0.05940822
0003e0 43 bb 55 3d 79 37 be 3d 2c 62 f5 bc 8b 9e 81 bc
       0.05218054 0.09287924 -0.029954039 -0.01582267
0003f0 94 0d 32 3e 85 be 9c 3b 31 9f 49 be 01 d0 44 3d
       0.17387992 0.004783454 -0.19689633 0.04804993

fc4.bias f4 [64]
000000 65 50 8c bd 2d 84 ad bd cc e3 45 3e 07 4c c8 bd
       -0.068512715 -0.08472476 0.19325179 -0.09780126
000010 e5 b9 f0 3d 16 fd ae bd 0b b8 ab bd 64 06 a2 bc
       0.117542066 -0.08544366 -0.08384713 -0.019778438
000020 75 96 97 3c 32 b8 d6 bd f6 39 22 3e 6f 4f 26 3e
       0.01850436 -0.10484351 0.15842423 0.16241239
000030 3a e8 b7 bd 95 03 b5 bd 0f 0a c4 bd 1c be 51 3e
       -0.089798406 -0.08838574 -0.09572231 0.20482677
000040 32 54 3d bc d9 c1 f8 bd 6f cd 88 3e b9 ff 14 3d
       -0.011555718 -0.121463485 0.26719233 0.03637669
000050 01 70 b6 bd ec 69 f4 3d 8b 1c 83 bd 16 a3 c9 3d
       -0.08908082 0.119342655 -0.064019285 0.09845559
000060 49 53 a6 bd 61 82 40 3e cb b0 32 bc 76 22 07 3e
       -0.08121354 0.18799736 -0.010906409 0.1319674
000070 57 84 64 3e 73 d5 c1 bd 37 15 c1 bc 87 0e e8 3d
       0.22316109 -0.0946454 -0.023569686 0.11330896
000080 0b 1a 20 3e 0b e9 6c 3e 03 0f 1c be e3 35 02 3e
       0.15634935 0.23135774 -0.15240102 0.12715869
000090 05 ee bd 3d 95 72 1e 3e fa f8 0d be 5f bf 5b 3e
       0.09273914 0.15473397 -0.13864508 0.21459721
0000a0 72 d4 9e 3d ec 84 f7 3d 85 7b d1 bd 74 15 46 bd
       0.077553645 0.120859 -0.102286376 -0.048360303
0000b0 ff 1c 05 3e c5 ed 13 be ba ae ac bc 9a 57 ab bc
       0.12999342 -0.1444617 -0.02107941 -0.020915795
0000c0 d0 92 ec bd 62 fa 5a bd b0 55 75 3e e5 63 4a bd
       -0.1155144 -0.05346144 0.23958468 -0.049411673
0000d0 d5 0f be 3d ff 41 01 3e 1b 37 56 be 8e ce 36 bd
       0.092803635 0.12622832 -0.20919459 -0.04463058
0000e0 90 76 78 3e 03 09 94 3e 54 23 98 bb 4b c6 fe bd
       0.24263978 0.28913125 -0.0046428833 -0.12440165
0000f0 d5 3b 3d 3e 84 5f 99 3d b9 f0 02 be c2 a1 f7 3d
       0.18479855 0.07488921 -0.12787141 0.120914

fc5.weight f4 [32, 64]
000000 04 9c 1d 3e 5f af 4c be f0 5b f8 3d ba c0 ec 3d
       0.15391546 -0.19988774 0.12126911 0.11560197
000010 b1 ff 37 3e 71 52 cf bd 35 10 98 bd c5 8a 24 be
       0.17968632 -0.10123146 -0.07424966 -0.16068561
000020 1b b9 e1 3c 80 71 1d be 75 86 85 3d b7 cf 6c 3e
       0.027554085 -0.15375328 0.06519786 0.23126112
000030 2c 91 1b be d8 17 90 3d f6 2d 5a bd 4b 28 f4 3d
       -0.15192097 0.07035798 -0.053266488 0.11921748
000040 18 4c 5f bd 0a 65 92 bd 3f 64 2c 3c 55 0e 86 3e
       -0.054515928 -0.07148178 0.010521947 0.2618281
000050 b4 ce 45 3e 8a c8 be 3d 19 67 b6 3e c0 20 4c bd
       0.19317132 0.093155935 0.35625532 -0.04983592
000060 c2 ef b6 bc 2d 09 01 bd ac 84 93 bd 74 c3 dc bc
       -0.022331122 -0.03150289 -0.072030395 -0.026948668
000070 cb 54 b5 3d 41 ec 93 bd f4 4b ac be 25 5a 11 be
       0.088540636 -0.07222796 -0.33651698 -0.14194544
000080 1d fd 9a bb 8e 25 10 3e 2b b7 83 3e 19 9e 04 3e
       -0.0047298805 0.14076826 0.25725684 0.12950934
000090 f9 c6 cb 3d 3c 55 5d 3c 7d 77 33 3e 08 b1 82 3e
       0.099500604 0.013509091 0.1752605 0.2552569
0000a0 ba 5a 59 3e 78 ec 61 be 3b 19 df bc 5b 82 96 3d
       0.21226016 -0.22062862 -0.02723371 0.07349082
0000b0 f5 92 d6 bc 86 7b 5b 3e 85 80 cb bc f9 59 02 bd
       -0.026193121 0.21433839 -0.024841556 -0.031824086
0000c0 b5 64 3e 3e 35 95 85 bd 4b 80 83 3e b5 86 b0 3e
       0.18593104 -0.065225996 0.25683817 0.34477773
0000d0 8a a6 69 3d 03 08 18 3e 08 1d 4b be c5 6f 6a 3d
       0.05704359 0.14846806 -0.19835293 0.057235498
0000e0 38 9c 25 3e e8 21 84 3c e8 b8 28 be 55 27 dd bd
       0.16172874 0.016129449 -0.16476786 -0.107985176
0000f0 e1 14 f0 3d e0 80 1f be 9e a9 0d be 9e 0d b3 bc
       0.11722732 -0.15576506 -0.13834235 -0.02185708
000100 b9 2e c5 3c 9e 15 72 3d e3 95 1f be 7e dc dd 3d
       0.02407013 0.059102647 -0.15584521 0.10833071
000110 61 4b 41 3b a0 51 ee bd 65 30 9d 3e 6f 11 6a bc
       0.0029494392 -0.116366625 0.30700985 -0.014286383
000120 d1 b7 27 be 25 50 30 3e 65 50 d3 bd 31 d1 27 be
       -0.16378714 0.17218073 -0.103180684 -0.16388394
000130 9c e9 22 bc 24 57 af bd a8 62 5d 3e 2b 53 1c be
       -0.009943392 -0.08561543 0.21619666 -0.15266101
000140 07 ec 8b bd 1a ef f9 bd 85 6b 1c 3c e0 8e 66 bb
       -0.06832128 -0.12203808 0.009547119 -0.0035180375
000150 f3 e0 af 3d d5 b2 f2 3c 59 49 e7 3c c6 d8 13 be
       0.085878275 0.02962629 0.028233217 -0.14438161
000160 c1 ef bb bc 30 02 18 3e 23 5e a6 3d 89 1c 96 3e
       -0.022941472 0.14844584 0.08123424 0.29318646
000170 81 c2 d1 bd df 31 2d 3d 2c b5 7e 3c ad 1c f9 3d
       -0.10242177 0.04228389 0.015546124 0.121636726
000180 66 9b a8 bd 84 05 cf 3d 67 d7 98 bd db 7b 37 be
       -0.08232765 0.10108474 -0.0746296 -0.17918341
000190 d2 54 09 3c d2 64 32 be 02 f6 d4 3c be bc 92 bb
       0.008382039 -0.17421272 0.025996212 -0.004478066
0001a0 95 be 87 be 23 87 54 3e 20 c4 f9 bd 66 0c b2 3d
       -0.2651259 0.20754676 -0.12195611 0.08693771
0001b0 6a bf 52 be fc 0a ba bd c4 e0 60 3d 8f 61 87 be
       -0.20580831 -0.09084126 0.054901853 -0.2644162
0001c0 8a 0c b3 bd d2 72 b2 3d 55 96 13 bd 3c a3 07 bd
       -0.08742626 0.087133065 -0.03603204 -0.033114657
0001d0 3f 46 f5 bd d4 cf 9e 3e 82 82 6f 3d 4c af b2 3d
       -0.11976289 0.31017935 0.05847407 0.087248415
0001e0 99 85 8b be 13 fc 28 3d fb 9b 21 be f0 2d b9 bd
       -0.27250364 0.04125602 -0.15782158 -0.09041965
0001f0 a3 7a af 3c 12 d7 fe bd 1e 07 00 bd e2 a1 61 3e
       0.021420782 -0.12443365 -0.031256787 0.2203441
000200 33 79 23 3e d7 da 0d 3e f2 0b fa 3d 30 ee fe bc
       0.15964203 0.13853012 0.1220931 -0.031119436
000210 03 af 8d bd 8f cf 94 3b 02 9e 8e be e6 6c 4b bd
       -0.069181465 0.0045413445 -0.27854925 -0.0496644
000220 07 c8 34 be c9 43 b7 bd 76 78 13 3e 45 73 da 3d
       -0.1765443 -0.08948476 0.14401421 0.10666517
000230 ad 74 60 be f5 3c 4f bc 9c 9d fe bd 19 20 d8 3d
       -0.21919508 -0.012648811 -0.12432405 0.10552997
000240 6b e2 0e be dc 87 a3 bc ee b3 27 3e ce c1 3c 3c
       -0.13953559 -0.019962244 0.16377231 0.011520816
000250 47 13 a7 bd 9d 14 42 3c 09 fc a6 bd bf ed 3b 3e
       -0.08157974 0.011845735 -0.08153541 0.18352412
000260 89 ed 51 be b1 ed 3d 3e a3 7f 54 be 6b a0 17 3e
       -0.20500769 0.18547703 -0.20751815 0.14807288
000270 ef 25 6e 3e ea 54 00 3e e3 75 f9 bc 36 7c 8a bd
       0.23256658 0.12532392 -0.03045172 -0.067619726
000280 f5 b9 92 3c 22 f2 33 3e 60 b8 a8 bc db 5b 22 3d
       0.017910937 0.17572835 -0.02059573 0.03963838
000290 6b 03 fa 3d e3 44 ec 3d a6 10 0c be aa 35 04 3e
       0.12207683 0.115365766 -0.13678226 0.12911096
0002a0 15 1d 15 3e bf 67 88 3e df 4c cf bd 3d a1 32 bd
       0.14561875 0.26641652 -0.10122084 -0.0436108
0002b0 8f f8 4f 3e 06 97 71 be 60 3f 67 bd 84 31 80 3d
       0.20309661 -0.23592767 -0.056456923 0.06259444
0002c0 58 fe a9 bd 15 14 34 bd 20 12 a5 bb 99 65 e5 3e
       -0.08300465 -0.043964464 -0.005037561 0.44804075
0002d0 86 ae 01 3d af e8 76 3e e8 fc a8 bc db 19 bd 3d
       0.03166058 0.24112199 -0.020628408 0.09233447
0002e0 19 76 2d 3e a0 59 36 3e 9b 82 8d 3c 6f 48 1d bd
       0.16939582 0.17807627 0.017274192 -0.038399156
0002f0 05 0e 2c 3e f1 f2 12 3e ab 4e bc be d0 99 ca 3d
       0.16802223 0.14350487 -0.3677877 0.09892619
000300 72 02 41 be 9a f6 26 bd 76 6b c5 3d 39 22 d1 3d
       -0.18848589 -0.04076252 0.09639637 0.102116056
000310 fd f3 89 bd 25 0e 16 3d 3e c0 96 be ae 2a 1a be
       -0.0673599 0.036634583 -0.29443544 -0.15055344
000320 3d 2c 19 be 8b ef 18 be 47 d9 21 3e c9 a2 ad 3c
       -0.14958282 -0.14935128 0.15805541 0.021195786
000330 d2 0d 8a bd ae 1a 42 bd 9f 5f 8b be 14 d6 8a 3d
       -0.06740917 -0.047388725 -0.2722139 0.067791134
000340 5b 13 fb 3b 23 60 07 bd 50 6c 64 3e 75 35 74 3e
       0.0076622195 -0.033050667 0.22306943 0.23848517
000350 d9 6a 06 be 1f c1 97 3d 3a f4 64 3d b2 e6 de 3c
       -0.13126697 0.07409882 0.055896975 0.027209613
000360 80 ba 4f be 4b 1d 32 3e ce 39 bc bd 8f a9 80 3d
       -0.20285988 0.17393987 -0.09190713 0.06282341
000370 1b f5 c7 3d 3e 4f e8 3d 2b e2 98 bc 93 80 d1 bd
       0.09763547 0.11343239 -0.018662533 -0.10229602
000380 ff 6d b4 3d 5e c6 12 3e 39 1b f5 bd db ad 84 3d
       0.088100426 0.14333484 -0.11968083 0.06478473
000390 83 0d 69 3e f8 c4 da 3d 5e ab 3c be e1 41 f9 bc
       0.2275906 0.106821 -0.18424746 -0.030426921
0003a0 76 1d eb bd f5 9f e9 3d 27 08 d4 3c a4 fa ae 3b
       -0.114802286 0.114074625 0.025882794 0.0053399373
0003b0 b0 09 a4 3e 9c 56 3b be a6 45 57 3d cd 5c 92 bd
       0.3203864 -0.18294758 0.052556656 -0.071466066
0003c0 8e 5d 07 be 0e b2 d1 bd 80 8a b3 3d e2 84 98 3e
       -0.13219282 -0.10239039 0.08766651 0.29788882
0003d0 1a 49 30 3c 82 9b 9f 3e eb 6e 0f be 88 26 67 be
       0.010759616 0.3117333 -0.14007156 -0.22573292
0003e0 3a cd 24 3d 45 bf a5 3e ec d0 66 3d 74 e4 64 3d
       0.04023478 0.3237249 0.056351587 0.055881932
0003f0 de 18 de 3c 5d f9 03 bd 4c 4a 3e be a6 f9 8b 3d
       0.027111467 -0.032220233 -0.1858303 0.06834726

fc5.bias f4 [32]
000000 ce e8 03 3e b7 c3 13 bd 2c 1e 88 3e 54 55 71 3e
       0.12881777 -0.03607532 0.2658552 0.23567706
000010 04 95 2e bd e5 f4 b4 bd 12 ba d1 bd 87 c4 88 be
       -0.04262258 -0.088357724 -0.10240568 -0.26712438
000020 b3 3d 1e 3e d2 28 b9 bd f1 7a 31 bd 65 4f 4c 3e
       0.15453224 -0.09040989 -0.043330137 0.19952162
000030 a2 4b ae 3e 3d 04 f9 bd ac e7 d6 3d 93 1e cd 3d
       0.34042078 -0.121590115 0.10493407 0.10015597
000040 42 26 f5 bd 31 bd 4e 3d d9 09 6c 3e d7 4b 8d bd
       -0.11970188 0.050473396 0.23050632 -0.06899231
000050 f5 d7 db 3d e9 73 6b bc fb 91 20 be 87 12 69 3e
       0.1073455 -0.014370897 -0.15680687 0.22760974
000060 10 39 08 3e 01 4e 02 bd b3 35 66 bc 5f aa a5 3d
       0.13303018 -0.03181267 -0.014050889 0.08089136
000070 3c 34 dd bd 2d 95 60 3c 7f 42 95 3e 3c fb ba 3c
       -0.108009785 0.013707441 0.29152295 0.022824876

fc6.weight f4 [4, 32]
000000 c5 cb 56 3e d0 c9 d8 bd d3 9d 32 3e 62 52 43 3e
       0.2097617 -0.10585368 0.17443018 0.19074395
000010 21 29 1f 3e bd 1a 2b 3e 96 ab 73 3e e6 55 0d be
       0.15543033 0.16709419 0.23795924 -0.13802299
000020 16 a8 df 3d da fb bc be 6e e2 a1 3d 63 6b 00 3e
       0.10920732 -0.36910897 0.07904516 0.12540965
000030 3d c5 20 3e c4 08 8d 3d df 3e 97 be fc 4f 4b 3e
       0.1570024 0.068864375 -0.29540154 0.1985473
000040 10 e3 95 3d e3 17 85 bd fb 9f 84 3e ab 4e d3 3d
       0.07318699 -0.06498697 0.25903305 0.10317739
000050 8f 97 1d 3e e3 aa de 3c 4d bb 02 be 57 c1 4f 3e
       0.15389846 0.027181095 -0.12766762 0.20288597
000060 c0 11 69 bd 60 07 43 3c 60 5f 58 3e 64 75 db be
       -0.056901693 0.011903614 0.21130133 -0.42863
000070 85 8f 1b 3e 36 fa 91 be 1b 0f 42 3e f8 bc 20 be
       0.15191467 -0.28511208 0.18951075 -0.15697086
000080 3d 43 f5 3d 28 fb 0a be a5 28 77 3e 92 c1 71 3c
       0.11975715 -0.13572371 0.24136598 0.014755623
000090 5a 72 d8 3d 84 55 72 bc a6 c1 89 bd fc cd 96 3d
       0.10568686 -0.014790896 -0.06726389 0.07363507
0000a0 a5 b6 a0 3d 74 f2 a9 3c 80 55 e7 3a f6 1a 66 3e
       0.07847337 0.020745493 0.0017649382 0.22471222
0000b0 9c 27 8b 3d 59 26 cb bd 2c b9 4d 3d e4 13 64 3e
       0.06794664 -0.099194236 0.05022542 0.22273213
0000c0 b8 18 b9 bc 75 3d 40 bd 9c 26 8d 3e 16 a0 af b9
       -0.022594795 -0.04693361 0.2756852 -0.00033497874
0000d0 ea 80 af bd 40 63 7b 3d 45 9a df 3d 95 e9 3e 3d
       -0.0856951 0.06137395 0.109180965 0.04660948
0000e0 5d fe 59 3e 96 46 9b 3d be e7 42 3e fd f3 94 bd
       0.21288438 0.075818226 0.19033715 -0.072730996
0000f0 e7 96 69 3e 37 d2 36 3d b0 f5 0f 3e b5 43 74 3e
       0.22811471 0.04463407 0.14058566 0.23853953
000100 71 bb 21 bd 74 d1 8a 3d 74 3a 87 3e b7 78 34 3e
       -0.0394854 0.06778231 0.26411784 0.17624174
000110 00 2b 3c 3a 58 03 b1 be 06 d7 92 be 58 1f e2 be
       0.00071780384 -0.34572864 -0.28679675 -0.44164538
000120 18 f5 a7 bd 64 dc 26 be a1 2a b4 3d 8a 25 60 3e
       -0.08201045 -0.1629501 0.08797193 0.2188932
000130 f3 a4 87 3e 28 e8 16 bb cd 38 0c be a2 9a de bd
       0.26493034 -0.002302656 -0.13693543 -0.108693376
000140 73 93 e4 bd b4 8c ef 3c 24 c2 13 3e 7a 05 ec 3c
       -0.11160936 0.029241897 0.14429528 0.028811205
000150 36 ac 8d 3d 04 e5 a1 bc ed 9e 91 3e bb d8 f4 3d
       0.06917612 -0.019762523 0.28441563 0.119554006
000160 26 fb bb 3d 5a b5 15 be 06 06 72 be 27 94 d3 bc
       0.09178762 -0.14619961 -0.2363511 -0.02582748
000170 d2 e4 a1 be c5 b6 35 3e 2b 73 a7 3d f8 a7 36 3e
       -0.3161989 0.17745502 0.081762634 0.17837512
000180 75 b9 41 3e 91 28 90 be 34 91 22 3e 8b 59 00 3e
       0.18918402 -0.2815595 0.15875703 0.12534158
000190 16 fd d1 bd 65 b7 e0 bd 9c 76 70 be b6 b5 6d be
       -0.102533504 -0.1097248 -0.23482746 -0.23213848
0001a0 d1 fc 12 3e ee 4e 6b be 00 08 0b bd 80 26 52 3e
       0.14354254 -0.22979328 -0.033943176 0.20522499
0001b0 42 74 5e 3e d6 02 10 be d1 cc 89 3e 06 9c 73 3c
       0.21724036 -0.14063582 0.26914075 0.014868742
0001c0 d5 3c 9a bd b5 87 39 bd ae ad 64 bd 7d 6c f3 3d
       -0.07531134 -0.045295436 -0.055829696 0.11885927
0001d0 ed a2 31 3e 3c 80 7c 3d fc 63 34 be a4 09 69 3e
       0.17347308 0.06164573 -0.17616266 0.22757584
0001e0 2f d3 8f 3e 3e 6c 04 3e be 7c ca bd 5f 18 01 3d
       0.28090808 0.12931916 -0.09887074 0.031517383
0001f0 f4 e9 a4 bd 30 ef 9e 3d 20 69 32 3e b7 15 a5 be
       -0.080524355 0.07760465 0.17422915 -0.3224313

fc6.bias f4 [4]
000000 95 b6 2e 3e 13 1e 39 3e 31 dc 7e 3e ba 5c a4 3d
       0.17061837 0.18077879 0.24888684 0.08025499
